greenhouse_model.tflite (tflite, 14064 bytes, 6 tensors)

arith.constant f4 [14, 32]
0	0xbf3e706f	-0.7439031
1	0x3df38489	0.118905134
2	0xbe0d0e65	-0.13775022
3	0x3ebc1581	0.36735156
4	0xbfa1eb90	-1.2650013
5	0xbf3e0b8b	-0.74236363
6	0xbe9a6f4b	-0.30163035
7	0x3ee6dfc9	0.4509261
8	0x3e297dad	0.16551848
9	0xbfa9e623	-1.3273357
10	0x3f036b9f	0.5133609
11	0xbf1ea6ec	-0.6197345
12	0xbf808b0a	-1.0042431
13	0xbf75c2ed	-0.9600056
14	0x3e74564f	0.23861049
15	0xbe7fc26a	-0.24976507
16	0x3b5d5006	0.0033769622
17	0x3ea30468	0.318393
18	0x3cee468f	0.02908638
19	0x3e9e1c9b	0.308812
20	0xbc617008	-0.0137596205
21	0xbf057a21	-0.5213948
22	0x3bee31ce	0.007269121
23	0xbfc6fd27	-1.5546006
24	0x3e5b820e	0.2143633
25	0xbf360ca0	-0.71113014
26	0xbfaa88c1	-1.3322984
27	0x3d80f6df	0.06297087
28	0xbf485448	-0.78253603
29	0xbf1a634d	-0.6030777
30	0xbfa6442a	-1.2989552
31	0xc0020997	-2.0318353
32	0x3ef17ee9	0.47167137
33	0xbff30556	-1.8986003
34	0xbec1b1a8	-0.37830853
35	0xbfc54a16	-1.5413234
36	0x3ec27bf8	0.37985206
37	0x3e31532d	0.17316885
38	0xbe206394	-0.15662986
39	0xbf787d4f	-0.97066206
40	0x3f0d190f	0.5511636
41	0xbdd23a93	-0.102650784
42	0x3dd771cf	0.10519754
43	0xbe83d70a	-0.2575
44	0x3f0c5fa8	0.5483346
45	0xbe0fb2d3	-0.1403306
46	0x3e8519e4	0.25996315
47	0xbd271b4b	-0.040797513
48	0xbf21edc0	-0.632534
49	0xbecfb614	-0.40568602
50	0xbf71b135	-0.9441102
51	0xbeab3ce8	-0.33444905
52	0xbf00fc28	-0.5038476
53	0x3db569e6	0.08858089
54	0xbe2e657c	-0.170309
55	0x3d963d58	0.07335919
56	0x3e9d2046	0.30688685
57	0x3eb58e56	0.35460156
58	0x390fde48	0.00013720349
59	0xbdc6cc07	-0.09706884
60	0x3d7331c2	0.059373625
61	0x3e553a04	0.20822912
62	0x3e71ddba	0.23619738
63	0x3ce0fcd1	0.027464302
64	0x3e96907d	0.2940711
65	0xbf3c2477	-0.7349314
66	0xbf3cfbbe	-0.7382163
67	0xbf3b3a40	-0.7313576
68	0x3ed70987	0.41999456
69	0xbf03d14f	-0.51491255
70	0xbea3d41b	-0.3199776
71	0xbf9b14bc	-1.2115703
72	0xbf72f929	-0.9491144
73	0x3ebf465e	0.37358373
74	0xbf9d9161	-1.2309991
75	0x3f102eba	0.563213
76	0x3e38a885	0.18033035
77	0x3e83f276	0.2577092
78	0xbfc8bf48	-1.5683374
79	0xbf30713d	-0.6892279
80	0xbeef7a31	-0.46772912
81	0xbe0125d4	-0.12612087
82	0xbe39a07c	-0.18127626
83	0x3ec46da0	0.38364887
84	0x3f20febe	0.62888706
85	0x3df1ae93	0.118008755
86	0xbf935074	-1.1508927
87	0xbefa3726	-0.488702
88	0xbfb68bc8	-1.4261408
89	0x3e55e774	0.20889074
90	0x3eea93de	0.4581594
91	0x3dd59b80	0.1043005
92	0xbea58e9e	-0.3233537
93	0xbe326071	-0.17419602
94	0xbf0ebdfd	-0.5575865
95	0xbea02da7	-0.3128483
96	0xbf5ee68a	-0.87070525
97	0x3d79fd5a	0.06103263
98	0xbdd88444	-0.10572103
99	0x3dff29da	0.124591544
100	0x3eb1cf53	0.34728488
101	0x3ed8c1f5	0.42335477
102	0xbf5ea85c	-0.86975646
103	0x3d717727	0.058951523
104	0xbe8ea168	-0.27857518
105	0x3ee7cf37	0.4527528
106	0xbe8df0eb	-0.27722868
107	0xbddbd661	-0.10734249
108	0x3e96eaba	0.29475957
109	0xbfac5408	-1.3463144
110	0xbd34016a	-0.04394666
111	0x3ea97326	0.33095664
112	0x3d33a74d	0.043860722
113	0x3e319476	0.1734179
114	0xbca23576	-0.019800883
115	0x3bcb249b	0.006199432
116	0xbe41d69c	-0.18929523
117	0xbf89d75f	-1.0768851
118	0x3e729bb3	0.23692207
119	0xbe073878	-0.13205135
120	0xbe8d9d10	-0.27658892
121	0x3ec5dae3	0.3864356
122	0x3eb51938	0.35370803
123	0x3e8030a1	0.250371
124	0x3e311026	0.17291316
125	0x3e699efc	0.22814554
126	0x3d9d9fe8	0.07696515
127	0xbd8e894f	-0.06959783
128	0x3efd8bdc	0.49520767
129	0xbf95f534	-1.1715455
130	0xbf431e4b	-0.762181
131	0x3ebdfa37	0.3710496
132	0xbec483b2	-0.38381726
133	0x3e7448e3	0.23855929
134	0xbdb7c34f	-0.08972799
135	0xbeb126f7	-0.3460004
136	0xbfc1f3c4	-1.5152516
137	0x3f0bc883	0.5460283
138	0xbf8e35d8	-1.1110182
139	0x3ee2bfb2	0.44286877
140	0x3d8f5584	0.06998733
141	0xbf9dd801	-1.2331544
142	0xbf3642ec	-0.71195865
143	0xbf47711c	-0.77906966
144	0xbe5c727e	-0.2152805
145	0x3eda02e2	0.42580324
146	0xbf0f9072	-0.5607978
147	0x3f025b4c	0.5092056
148	0xbf58fcb0	-0.8476057
149	0xbe5a6345	-0.21326931
150	0xbf285a03	-0.65762347
151	0xbe88fbe5	-0.2675468
152	0xbf558966	-0.8341278
153	0xbe8256be	-0.25456804
154	0xbdd9429f	-0.1060841
155	0x3d230810	0.03980261
156	0xbd55e23a	-0.0522177
157	0x3eeb802b	0.45996222
158	0xbcb50e86	-0.022101652
159	0x3d060af0	0.032725275
160	0x3dd8d445	0.10587362
161	0x3eb7c08a	0.35889083
162	0xbb6d2749	-0.0036186746
163	0xbe258208	-0.16162884
164	0x3dc767bb	0.09736582
165	0x3f0fdcfc	0.5619657
166	0xbf56d422	-0.8391744
167	0x3dc252d8	0.094884574
168	0x3e485274	0.19562703
169	0x3e972efd	0.29528037
170	0x3e59dd71	0.2127588
171	0xbd8d2140	-0.068911076
172	0xbe9c3ce8	-0.30515218
173	0x3e73dc3f	0.23814486
174	0x3cce0705	0.025149832
175	0xbdd8816e	-0.10571562
176	0xbe6a35e6	-0.22872123
177	0x3ec99450	0.39370966
178	0xc00c75f6	-2.1946998
179	0xbd2f19e1	-0.04274929
180	0xbcd03eef	-0.025420634
181	0x3e5cce57	0.21563087
182	0x3cd7a1de	0.026322301
183	0x3e365e94	0.17809516
184	0xbcd78da5	-0.026312659
185	0x3ec9e64f	0.39433524
186	0x3d8855e6	0.06657009
187	0x3d709dbc	0.058744177
188	0x3daf114b	0.0854822
189	0x3db81abf	0.089894764
190	0x3f3a95be	0.7288474
191	0xbe7ad0f0	-0.24493766
192	0x3ee98356	0.45608014
193	0xbeda8c06	-0.42684954
194	0x3ef35115	0.47522798
195	0x3e8b8ba4	0.27254975
196	0x3e5d0fa8	0.21588004
197	0xbe93d33b	-0.28872094
198	0xbec580e7	-0.38574907
199	0x3edf0407	0.4355776
200	0x3ddb4ee5	0.10708407
201	0x3cb54e3f	0.022132037
202	0xbf839308	-1.0279245
203	0xbe5461ad	-0.20740385
204	0xbf2ea126	-0.68214643
205	0x3ef961d8	0.4870746
206	0xbe7087d7	-0.23489319
207	0xbebecd51	-0.3726602
208	0xbf7f27ef	-0.9967031
209	0x3eb9e3c9	0.363066
210	0xbf461964	-0.77382493
211	0x3def8d80	0.11696911
212	0x3e869412	0.26284844
213	0x3ed4654d	0.41483536
214	0xbfcf2646	-1.6183555
215	0x3eb044e1	0.3442755
216	0x3f11fd64	0.5702727
217	0xbccf9a9a	-0.025342274
218	0x3dc566be	0.09638737
219	0xbe742125	-0.23840769
220	0x3ebc685f	0.3679838
221	0x3e3835af	0.17989229
222	0xbf726d21	-0.9469777
223	0xbd8d28e7	-0.06892567
224	0x3f263596	0.64925516
225	0xbece64ac	-0.40311182
226	0xbf6f343b	-0.9343907
227	0xbee2875c	-0.44243896
228	0x3df84a98	0.12123603
229	0x3ee6ab6b	0.45052657
230	0x3e634a93	0.22196417
231	0xbfcf50b6	-1.6196506
232	0x3e875dd0	0.2643876
233	0xbe0e63ce	-0.1390526
234	0x3e29aeaa	0.16570535
235	0xbd0bceea	-0.034132876
236	0xbfb1a25c	-1.3877673
237	0xbefe9010	-0.49719286
238	0x3eb853d3	0.36001453
239	0xbf9361a6	-1.1514175
240	0x3e5ef75c	0.21774048
241	0x3d56ded6	0.052458607
242	0x3ea218b5	0.31659475
243	0xbff40019	-1.906253
244	0xbe5c8eea	-0.21538892
245	0xbf24426b	-0.64163846
246	0x3c884561	0.016634645
247	0x3ea452e9	0.32094505
248	0x3e4fe1e2	0.20301011
249	0xbf983be3	-1.1893276
250	0xbe8682bb	-0.26271614
251	0xbd2b8ab9	-0.041880343
252	0x3e7e9a55	0.2486356
253	0xbec36b2d	-0.38167706
254	0xbe560ff8	-0.20904529
255	0x3da93a29	0.08263046

arith.constant1 f4 [32, 64]
0	0xbec017ce	-0.37518162
1	0xbf4935a3	-0.7859747
2	0x3eb0f250	0.3455987
3	0x3f572326	0.8403801
4	0x3f0a2cd8	0.53974676
5	0x3e40466e	0.18776867
6	0xbdef1854	-0.11674562
7	0xbd121c17	-0.03567132
8	0x3e9b1cc7	0.30295393
9	0x3e55978a	0.20858589
10	0xbe1fec84	-0.15617567
11	0x3f3a9ad0	0.72892475
12	0x3e62d45f	0.22151326
13	0x3d993fc3	0.07482865
14	0xbdf083b4	-0.117438704
15	0x3f38f6cc	0.7225158
16	0x3df2b53c	0.11850974
17	0xbed8a1fb	-0.4231108
18	0xbe8f35e4	-0.27970803
19	0x3ed7c188	0.4213984
20	0x3f1211b1	0.57058245
21	0x3e40e1b9	0.18836106
22	0x3f204167	0.62599796
23	0xbe0373da	-0.12837163
24	0xbdfb0043	-0.12255909
25	0x3eb84ba6	0.35995215
26	0x3f197b54	0.5995381
27	0x3e9038db	0.28168377
28	0xbe208c5f	-0.15678547
29	0xbd18cdfc	-0.037305817
30	0x3e19e68f	0.15029357
31	0x3eb00127	0.3437588
32	0xbeabc0ec	-0.33545625
33	0x3f772548	0.9654126
34	0xbd534dda	-0.051587917
35	0xbf0ed815	-0.55798465
36	0xbf128bd1	-0.5724459
37	0x3f57fe2d	0.84372216
38	0x3edb1480	0.42789078
39	0x3d96ac88	0.073571265
40	0x3e10f82a	0.14157167
41	0xbf12a0cc	-0.57276607
42	0x3e2462e5	0.1605335
43	0x3f197f8b	0.5996024
44	0xbe9c690f	-0.30548903
45	0xbc216a68	-0.009852029
46	0x3e6f3cad	0.2336299
47	0x3ca4decb	0.020125767
48	0x3f0c9792	0.5491878
49	0x3edf8c5c	0.43661773
50	0xbe8f55d3	-0.27995166
51	0x3edcaa3c	0.4309863
52	0xbdc6fae7	-0.097158246
53	0x3f1ea911	0.61976725
54	0x3e7f8317	0.2495235
55	0x3c91ce7d	0.017798657
56	0x3ef4a16c	0.47779405
57	0x3f23d0ea	0.6399065
58	0x3f2ddf08	0.67918444
59	0xbeda8033	-0.42675933
60	0x3f149b27	0.58049244
61	0xbbc91d3a	-0.0061375173
62	0x3d0ef46c	0.034901068
63	0xbe8a57b1	-0.27020028
64	0x3e537c16	0.20652804
65	0x3efefabd	0.49800673
66	0xbea38e61	-0.31944564
67	0x3da99d0d	0.08281908
68	0xbeecdb0e	-0.46260875
69	0xbcf8a554	-0.030352272
70	0x3d0bc172	0.03412003
71	0xbe6e167f	-0.23250769
72	0x3ec826be	0.39092058
73	0xbeda048a	-0.42581588
74	0x3f28cfe4	0.65942216
75	0xbe7ee666	-0.24892578
76	0xbe28ecc5	-0.1649657
77	0x3beaebe3	0.007169233
78	0x3e9ccb55	0.3062388
79	0xbdbe54bf	-0.09293508
80	0x3db58321	0.088629015
81	0x3e9cd30b	0.30629763
82	0x3f0f3064	0.55933213
83	0xbe7e460a	-0.24831405
84	0xbe8a02ba	-0.26955205
85	0xbe21693d	-0.15762801
86	0x3e583eda	0.21117726
87	0x3e192587	0.14955722
88	0x3ed66fb3	0.41882095
89	0x3ec0911e	0.37610716
90	0x3b7c50a9	0.0038500226
91	0x3cb2ffc3	0.021850472
92	0x3e7db1d8	0.24774873
93	0x3e8a2ce8	0.26987386
94	0x3d1a5070	0.037674367
95	0x3d1aff82	0.037841327
96	0x3f06861d	0.5254839
97	0xbc69d2d1	-0.014271454
98	0x3e0ce699	0.13759841
99	0x3eff2768	0.49834752
100	0x3e9f00aa	0.31055194
101	0xbeeecfe0	-0.4664297
102	0x3df121fe	0.117740616
103	0xbe58f3a6	-0.21186695
104	0xbc576ac0	-0.01314801
105	0x3f0cf489	0.5506063
106	0xbe259353	-0.16169481
107	0xbe9f5384	-0.31118405
108	0x3ef36265	0.47536007
109	0xbd9b0694	-0.07569614
110	0x3eb8c2fc	0.3608626
111	0x3eb821cc	0.35963285
112	0xbcfed617	-0.031107945
113	0xbe142de9	-0.14470638
114	0x3ee3c229	0.4448407
115	0x3dda384e	0.106552705
116	0x3e7ddda8	0.24791586
117	0xbe434240	-0.19068241
118	0x3eba1378	0.36342978
119	0x3e09853f	0.13429736
120	0xbe6e5b74	-0.23277074
121	0x3dbc9ca0	0.09209561
122	0xbe8e98de	-0.27851003
123	0x3e4bc8ab	0.19900768
124	0x3e5910a5	0.21197756
125	0x3edc85a1	0.430707
126	0x3e0197bd	0.1265554
127	0x3e3b385b	0.18283217
128	0x3e630d09	0.22172941
129	0x3f50ee9d	0.81614095
130	0xbdcd6d75	-0.10030643
131	0x3ebe1c78	0.37131095
132	0xbde8ea95	-0.11372868
133	0xbe6a3337	-0.228711
134	0x3f03c563	0.51473063
135	0xbec98d1c	-0.3936547
136	0xbe2757a6	-0.16342029
137	0x3eb97915	0.3622519
138	0x3f4977b9	0.7869831
139	0x3d702563	0.058629405
140	0xbec7d676	-0.39030808
141	0xbe5e1f79	-0.21691693
142	0x3f1ed1d6	0.62038934
143	0xbbbef05b	-0.0058269924
144	0x3e98309e	0.29724592
145	0x3dc66e39	0.09688992
146	0x3e0b2981	0.13590051
147	0xbf14d530	-0.581378
148	0x3e944aec	0.2896341
149	0xbdabd096	-0.08389394
150	0xbe70beb0	-0.23510242
151	0xbe7c4aa2	-0.24637845
152	0x3d418b11	0.047251765
153	0x3ee37173	0.44422492
154	0x3dd652a2	0.1046498
155	0xbf77843b	-0.9668614
156	0xbd581e94	-0.052763537
157	0x3e5855c5	0.21126468
158	0xbf0f6dd1	-0.5602694
159	0xbefca26f	-0.49342677
160	0x3e7d5222	0.24738362
161	0xbe41c40c	-0.18922442
162	0xbe834f01	-0.25646213
163	0x3e5d79b8	0.21628463
164	0x3e6f35b0	0.23360324
165	0x3e0b9de8	0.13634455
166	0xbc051233	-0.008122015
167	0xbe223c63	-0.15843348
168	0x3c93e467	0.018053247
169	0xbdafd660	-0.08585811
170	0xbe6b250b	-0.2296335
171	0x3e9f15f2	0.3107143
172	0x3f084579	0.53231007
173	0xbe91f38f	-0.28506133
174	0xbe7c4761	-0.24636604
175	0x3e188dc1	0.14897825
176	0x3e2bbe9c	0.1677193
177	0xbece7ded	-0.4033045
178	0x3f0471cd	0.51736146
179	0x3df798c1	0.12089682
180	0x3e23dde2	0.1600261
181	0x3d2a7ca8	0.041622788
182	0xbc36abc3	-0.01114935
183	0x3df474e6	0.11936359
184	0xbddee1cf	-0.10882913
185	0x3ddc799c	0.10765383
186	0xbe0d89ea	-0.13822141
187	0xbda4a46a	-0.08039172
188	0x3e37ff35	0.17968448
189	0x3e0d4e03	0.1379929
190	0x3e673ccf	0.2258179
191	0xbd41ca09	-0.047311816
192	0x3f26b809	0.65124565
193	0xbd33e96e	-0.043923788
194	0x3de82e53	0.11336961
195	0xbe463270	-0.19355178
196	0xbe466635	-0.19374926
197	0xbdc958cb	-0.09831389
198	0xbd8202ed	-0.06348214
199	0x3ddc830d	0.107671835
200	0x3ece4fb6	0.4029519
201	0xbe3dd04a	-0.18536487
202	0x3e16d29c	0.14728779
203	0xbf0f7af7	-0.56047004
204	0x3d8f9be9	0.070121594
205	0x3e92091b	0.28522572
206	0x3e746d4c	0.23869818
207	0xbe899da4	-0.26878083
208	0x3e2d55e4	0.16927296
209	0x3eb6d136	0.3570649
210	0x3d696a5d	0.0569862
211	0x3cb51f61	0.02210969
212	0xbd3a70cc	-0.045517728
213	0x3e12599a	0.14291993
214	0x3e9b2bb7	0.3030679
215	0x3dae2450	0.0850302
216	0x3e2942a7	0.16529332
217	0xbd902447	-0.07038169
218	0x3d0c548a	0.03426031
219	0xbc9605e5	-0.018313358
220	0xbde502d5	-0.11182181
221	0x3db16ba4	0.08663109
222	0xbd1c1306	-0.03810408
223	0xbcb64478	-0.022249445
224	0x3e607a9b	0.2192177
225	0x3e7dce28	0.24785674
226	0xbeb986b1	-0.36235574
227	0x3de1a914	0.11018577
228	0x3eb3d65e	0.35124487
229	0xbd88403d	-0.066528775
230	0xbe522a04	-0.2052384
231	0xbd1e6183	-0.038667213
232	0x3cda0c9b	0.026617339
233	0x3e7654e1	0.24055816
234	0x3eb9a336	0.36257333
235	0xbef39369	-0.47573403
236	0x3e5953c3	0.21223359
237	0x3ee0e678	0.43925834
238	0x3e9d5b52	0.30733734
239	0xbe829c36	-0.25509804
240	0xbf4c2b33	-0.79753417
241	0x3c80154d	0.015635157
242	0x3e990e87	0.29893896
243	0xbe0f5063	-0.13995509
244	0x3eff3939	0.49848345
245	0xbdaa7357	-0.083227806
246	0xbdae97de	-0.0852506
247	0x3ea68ec6	0.32530802
248	0xbc8a4191	-0.016876968
249	0x3da51c48	0.08062035
250	0xbe1bc05b	-0.15210097
251	0x3d97142b	0.073768936
252	0xbed27bbf	-0.41110036
253	0xbab1c9f7	-0.0013564219
254	0x3dc46efc	0.09591481
255	0xbe617cf8	-0.22020328

arith.constant2 f4 [14]
0	0xbd908f41	-0.070585735
1	0x3e1afb83	0.15135007
2	0xbe85cf49	-0.2613471
3	0x3d91b14b	0.07113894
4	0xbcec836c	-0.02887126
5	0x3ebf3cae	0.37350982
6	0xbdaff773	-0.08592119
7	0x3e761fb3	0.2403553
8	0xbdebdaa4	-0.11516312
9	0xbe7b2408	-0.24525464
10	0xbe4ef31e	-0.2020993
11	0xbe39e7e2	-0.18154863
12	0xbd492954	-0.04911168
13	0x3e9fadda	0.31187326

arith.constant3 f4 [32]
0	0x3e907230	0.28212118
1	0xbc9605e6	-0.01831336
2	0xbccf2853	-0.025287783
3	0xbc027ade	-0.007963864
4	0x3e2475d2	0.1606057
5	0x3e3d1506	0.18465051
6	0xbca45550	-0.020060211
7	0x3e5cdfcc	0.21569747
8	0x3ef6ca58	0.4820125
9	0x3e493105	0.19647606
10	0x3ea095ed	0.31364384
11	0xbe6d3cc0	-0.23167706
12	0xbcaebac7	-0.021329297
13	0x3e111f73	0.14172153
14	0x3f073d32	0.5282775
15	0xbdf8c575	-0.12147037
16	0x3d89cdb3	0.06728687
17	0x3e16db26	0.14732036
18	0xbae3f6c0	-0.0017392263
19	0x3caf3084	0.021385439
20	0xbe708bf7	-0.23490892
21	0xbe0dfde9	-0.1386639
22	0x3ec1b210	0.37831163
23	0x3e19beed	0.15014239
24	0x3e543a21	0.207253
25	0x3dfb9046	0.12283377
26	0x3ec4be53	0.38426456
27	0xbc4db1c6	-0.0125545915
28	0x3ea7d22f	0.32777545
29	0xbd3169d2	-0.04331381
30	0x3e03ef2f	0.1288421
31	0xbe3f3d6f	-0.18675779

sequential_1_1/dense_3_1/BiasAdd/ReadVariableOp f4 [64]
0	0x3e07dc9f	0.13267754
1	0x3e6baa9a	0.23014298
2	0x3f061fff	0.5239257
3	0x3d198679	0.03748176
4	0x3f519970	0.8187475
5	0x3f2d81bd	0.6777609
6	0x3d619355	0.055072147
7	0x3e1519f8	0.14560688
8	0x3f1ed517	0.620439
9	0xbe3ed6d9	-0.18636645
10	0x3eea3ef8	0.45751166
11	0x3f0dfeaf	0.5546674
12	0xbe185e3a	-0.14879695
13	0x3de0edd4	0.10982862
14	0x3f2efb5f	0.6835231
15	0x3e2b7a89	0.16745962
16	0x3e8de4a6	0.27713507
17	0x3ec0701b	0.3758553
18	0xbe6a0f9e	-0.2285752
19	0x3ec5adf4	0.38609278
20	0x3f05fc9e	0.5233859
21	0x3e51959e	0.2046723
22	0x3ece9735	0.40349737
23	0x3f12e79a	0.57384646
24	0x3e22d899	0.15902938
25	0x3d0b72a7	0.034044888
26	0x3f1ddf24	0.6166861
27	0x3e43c87d	0.19119449
28	0x3e0a26ef	0.13491414
29	0x3e67db93	0.22642355
30	0x3e2c0627	0.16799222
31	0x3f4f373c	0.80943656
32	0x3d4b1c37	0.049587455
33	0x3f708cb0	0.9396467
34	0xbe981913	-0.2970663
35	0x3ecf98cf	0.4054627
36	0x3ccc3de2	0.024931852
37	0xbd4be584	-0.04977943
38	0x3ef19699	0.4718521
39	0x3f1386e5	0.5762771
40	0x3ec67604	0.38761914
41	0xbe4ee6c7	-0.20205222
42	0x3cf7394c	0.030178688
43	0x3f040a99	0.5157867
44	0x3f00eba5	0.50359565
45	0x3ee7a4dc	0.45242965
46	0x3eee5a21	0.46553138
47	0x3f58e92c	0.8473079
48	0x3f273aff	0.65324396
49	0x3f61c210	0.8818674
50	0x3ea6257b	0.3245047
51	0x3ee570cc	0.4481262
52	0x3e861fe1	0.26196197
53	0x3c66f51d	0.0140965255
54	0x3f11bf42	0.5693246
55	0x3ed200cc	0.41016233
56	0x3e5e2528	0.21693861
57	0x3eced446	0.40396327
58	0x3da517f4	0.08061209
59	0x3f09f755	0.53893024
60	0x3ead79f7	0.33882114
61	0x3a7d0cdc	0.00096531
62	0x3d7c2af8	0.061564416
63	0xbc52025c	-0.012817945

sequential_1_1/dense_3_1/MatMul f4 [64, 6]
0	0xbea4e0ad	-0.32202664
1	0xbf345ca1	-0.7045384
2	0x3e86c743	0.263239
3	0xbe76b56f	-0.24092649
4	0x3b0c463c	0.0021404168
5	0xbeae4197	-0.34034416
6	0xbf8247fc	-1.0178218
7	0xbf0cac1c	-0.5495012
8	0x3f5386d9	0.82627636
9	0xbe83ab12	-0.25716454
10	0xbd713759	-0.058890674
11	0xbd8b9a7d	-0.06816576
12	0x3f350f2d	0.7072628
13	0xbead5bc6	-0.3385908
14	0xbe46254d	-0.19350167
15	0xbe37356d	-0.17891474
16	0x3d4c754a	0.049916543
17	0xbe5cd330	-0.21564937
18	0xbf489e7c	-0.7836683
19	0xbe8fb9ae	-0.2807135
20	0xbf4bac61	-0.79559904
21	0xbda4975c	-0.08036682
22	0xbd3a2f5c	-0.04545532
23	0x3d153e86	0.03643658
24	0xbe88241a	-0.26590043
25	0x3f183a61	0.5946408
26	0xbf1200d5	-0.5703252
27	0x3d93aedb	0.072110854
28	0xbe0e07f0	-0.13870215
29	0xbca54752	-0.02017561
30	0x3f889748	1.0671167
31	0xbd971fc7	-0.07379108
32	0x3ca33a4a	0.019925255
33	0x3df78eba	0.1208777
34	0xbe0409e7	-0.12894402
35	0x3e4b3c08	0.19847119
36	0xbf22e8d8	-0.6363654
37	0x3f063fb2	0.5244094
38	0xbd477dfa	-0.048704125
39	0xbeb889e9	-0.36042717
40	0xbeef6fc9	-0.46764973
41	0x3e10e4cf	0.14149784
42	0x3f608e61	0.8771725
43	0xbec3d662	-0.382495
44	0xbed10df9	-0.40830973
45	0x3e48272d	0.19546194
46	0x3ddf1c45	0.10894064
47	0xbe8929f5	-0.26789823
48	0x3df76ea2	0.120816484
49	0xbf49d1a5	-0.7883552
50	0x3d7bbeb8	0.06146118
51	0xbeb1238c	-0.34597433
52	0xbeb00899	-0.3438156
53	0x3e8d2da0	0.27573872
54	0x3ea1af47	0.31579039
55	0x3eb76f61	0.35827163
56	0xbf24354f	-0.6414384
57	0xbc90d561	-0.017679872
58	0x3e2db137	0.16962133
59	0xbd9f5c61	-0.07781292
60	0xbf77a19d	-0.9673098
61	0xbc512e62	-0.012767406
62	0x3e9df509	0.3085101
63	0x3e78a48f	0.24281524
64	0xbc4ae788	-0.012384303
65	0xbec709d9	-0.388747
66	0x3f0e661c	0.55624557
67	0x3f694e1a	0.911348
68	0xbecd7db1	-0.40134957
69	0xbe198673	-0.14992695
70	0xbde4e312	-0.11176123
71	0xbe288347	-0.16456328
72	0x3e60125c	0.21882004
73	0xbe7b6491	-0.24550082
74	0xbf0086a9	-0.50205475
75	0xbd72c086	-0.059265636
76	0xbe0a5332	-0.13508299
77	0xbeba97c0	-0.364439
78	0x3f5b918c	0.8576896
79	0xbea9f7bf	-0.33196828
80	0x3d18cf16	0.037306868
81	0xbf1810d9	-0.5940071
82	0xbe929cb3	-0.28635177
83	0xbc404815	-0.011735936
84	0xbf500f29	-0.8127313
85	0xbdacb96d	-0.08433805
86	0x3f198f58	0.5998435
87	0x3e93fff9	0.2890623
88	0xbe6ea1a7	-0.23303853
89	0xbb876120	-0.0041314512
90	0xbed520cb	-0.41626582
91	0x3e2d21a6	0.16907367
92	0xbf81cab3	-1.0139984
93	0xbe2656a0	-0.16243982
94	0x3e87f3fb	0.2655333
95	0x3e50beb7	0.20385252
96	0xbef82b54	-0.48470557
97	0xbeafeab1	-0.34358743
98	0xbee6d85c	-0.45086944
99	0xbe6096e2	-0.21932557
100	0xbe78d464	-0.2429977
101	0x3db5819b	0.08862611
102	0xbe852c5f	-0.26010415
103	0xbc378d0a	-0.01120306
104	0x3f5c5ed4	0.86082196
105	0xbda5982b	-0.08085664
106	0x3d96bb3a	0.073599294
107	0x3e841652	0.2579828
108	0x3f30c572	0.6905128
109	0xbe807f43	-0.25097093
110	0x3f702e6a	0.9382082
111	0xbc253be0	-0.010085076
112	0xbe3d04f0	-0.18458915
113	0xbe481a4c	-0.19541281
114	0xbeb64f51	-0.3560739
115	0xbe5b314c	-0.21405524
116	0xbf11adbe	-0.56905735
117	0x3e9d1763	0.30681905
118	0xbedb8e38	-0.42881942
119	0xbe16e305	-0.14735039
120	0xbe966930	-0.29377127
121	0x3f376d05	0.71650726
122	0xbef57839	-0.47943285
123	0x3d85a0d7	0.065248184
124	0x3cadd30a	0.021218795
125	0x3e9ae7be	0.3025493
126	0xbe8e9b58	-0.27852893
127	0x3df89ec3	0.121396564
128	0xbdb92b4f	-0.090414636
129	0x3ea80b7f	0.3282127
130	0xbec0b851	-0.37640622
131	0xbea21312	-0.31655174
132	0x3db84407	0.0899735
133	0xbf47f4d6	-0.78107965
134	0xbf15454e	-0.58308876
135	0xbde2df86	-0.1107779
136	0xbe206445	-0.1566325
137	0xbdfd6f89	-0.12374789
138	0x3ec3a7ae	0.38213867
139	0x3db274fd	0.0871372
140	0x3f88beff	1.0683287
141	0x3cc17b37	0.023618324
142	0x3e17ef24	0.14837319
143	0xbd2f1bdd	-0.042751182
144	0x3e79b875	0.24386771
145	0xbdd699a7	-0.104785256
146	0x3ee67b9b	0.45016178
147	0x3ee4cd62	0.44687945
148	0xbe663eb5	-0.22484858
149	0xbef2bbd5	-0.4740893
150	0xbf68738f	-0.9080133
151	0x3dddeacb	0.10835799
152	0xbe739644	-0.2378779
153	0xbe91ba0b	-0.28462252
154	0xbd5bb2f9	-0.05363748
155	0x3e316b19	0.17326011
156	0x3e978e8a	0.29600936
157	0xbf1fbd0e	-0.6239785
158	0xbef02450	-0.46902704
159	0x3daf1fb2	0.08550967
160	0xbe5787b6	-0.21047863
161	0x3de5ecfd	0.112268426
162	0x3f1b7bdd	0.60735875
163	0xbed617ee	-0.41815132
164	0xbf070ae7	-0.5275101
165	0x3e4ea16e	0.20178768
166	0xbdaf286f	-0.08552634
167	0x3e1b106c	0.15142983
168	0x3e3782d2	0.17920998
169	0xbec2c0b8	-0.38037658
170	0x3e266670	0.16250014
171	0x3e9ebbb2	0.31002575
172	0xbf0d6afa	-0.5524136
173	0xbee69a16	-0.45039433
174	0xbe91ef5d	-0.28502932
175	0x3ee57f28	0.44823575
176	0x3f3f0708	0.74620104
177	0xbe227cbe	-0.15867898
178	0x3ea9675b	0.33086666
179	0x3b81d0fd	0.003961681
180	0xbe8cc78b	-0.2749599
181	0xbe1656ca	-0.14681545
182	0xbeb42401	-0.3518372
183	0x3f072668	0.5279298
184	0xbe0fed3b	-0.1405534
185	0x3f18d943	0.59706515
186	0x3ed7e72e	0.42168564
187	0xbea40ee7	-0.3204262
188	0x3d630bd3	0.0554312
189	0x3ca4f926	0.020138334
190	0x3e9152d9	0.2838352
191	0xbe16b58f	-0.14717697
192	0x3e7ed8c9	0.24887384
193	0xbe56de0b	-0.2098314
194	0x3f9eb41b	1.2398714
195	0xbe578287	-0.21045886
196	0xbd3b0b73	-0.045665216
197	0xbda93558	-0.08262128
198	0x3e49f758	0.1972326
199	0xbe88627b	-0.26637635
200	0xbf3a7506	-0.72834814
201	0xbdc6ab75	-0.097006716
202	0xbcb8e425	-0.022569725
203	0xbd2e4ef5	-0.042555768
204	0x3f19e643	0.60116976
205	0x3dcdfec4	0.10058358
206	0xbe01a293	-0.12659673
207	0xbebee72d	-0.37285748
208	0xbebac7df	-0.36480615
209	0x3e05e12c	0.13074178
210	0xbf162eb8	-0.5866504
211	0x3cb77de0	0.022398889
212	0x3f5ac7f3	0.8546135
213	0xbccbdb9a	-0.024884988
214	0xbe1b6155	-0.15173848
215	0x3e5cd048	0.21563828
216	0x3e08aa9f	0.13346337
217	0xbdcf10c1	-0.101106174
218	0x3fa594c6	1.2936027
219	0xbc07d398	-0.008290194
220	0xbe55a650	-0.20864224
221	0x3db05cd9	0.08611459
222	0xbebe9bd9	-0.37228277
223	0x3ed13de2	0.40867525
224	0xbf7c85ee	-0.9864186
225	0x3edc9dff	0.4308929
226	0xbd885e49	-0.066586085
227	0xbe80f3d4	-0.25186026
228	0x3ef50f36	0.47863168
229	0x3f0a9eb9	0.5414844
230	0x3efc9900	0.4933548
231	0xbda7f257	-0.082005195
232	0xbe117b5e	-0.14207217
233	0x3e3eb208	0.18622601
234	0xbe2d085b	-0.16897719
235	0xbd3563bf	-0.04428458
236	0xbf13b2fd	-0.5769499
237	0xbe92cfb0	-0.28674078
238	0xbeaeb0c5	-0.3411924
239	0x3ed6b52a	0.41935092
240	0xbf2f1dde	-0.6840495
241	0x3f525bc1	0.82171255
242	0x3c5c83af	0.01345913
243	0x3c300804	0.010744099
244	0x3e505cac	0.20347852
245	0xbee67145	-0.45008293
246	0xbe224075	-0.15844901
247	0xbeb481ef	-0.3525538
248	0x3e5c39a7	0.21506368
249	0xbed4eefe	-0.41588587
250	0x3dd98747	0.10621505
251	0x3ed80247	0.42189237
252	0x3c2d25bc	0.010568079
253	0xbf70dcf3	-0.9408714
254	0xbecb7f82	-0.39745718
255	0x3d0f5090	0.03498894
